# Ultralytics YOLOv5 ðŸš€, AGPL-3.0 license

# Parameters
nc: 80 # number of classes
depth_multiple: 0.33 # model depth multiple
width_multiple: 0.50 # layer channel multiple
anchors:
  - [10, 13, 16, 30, 33, 23] # P3/8
  - [30, 61, 62, 45, 59, 119] # P4/16
  - [116, 90, 156, 198, 373, 326] # P5/32

# YOLOv5 v6.0 backbone
backbone:
  # [from, number, module, args]
  [
    # [-1, 1, Uformer, {'img_size': 640, 'embed_dim': 16, 'modulator': True, 'shift_flag': False}],
    [-1, 1, Conv, [64, 6, 2, 2]], # 0-P1/2    0
    [-1, 1, Conv, [128, 3, 2]], # 1-P2/4      1
    [-1, 3, C3, [128]],         #             2
    [-1, 1, Conv, [256, 3, 2]], # 3-P3/8      3
    [-1, 6, C3, [256]],         #             4
    [-1, 1, Conv, [512, 3, 2]], # 5-P4/16     5
    [-1, 9, C3, [512]],                      #6
    ##########################################################
    [-2, 1, Conv, [64, 6, 2, 2]], # 0-P1/2    7
    [-1, 1, Conv, [128, 3, 2]], # 1-P2/4      8
    [-1, 3, C3, [128]],                      #9 
    [-1, 1, Conv, [256, 3, 2]], # 3-P3/8      10
    [-1, 6, C3, [256]],                      #11
    [-1, 1, Conv, [512, 3, 2]], # 5-P4/16     12
    [-1, 9, C3, [512]],                      #13
    [[-1, 6], 1, Concat, [1]],               #14      è¿™é‡Œæ˜¯ä¸æ˜¯è¦æ”¹æˆaddï¼Ÿï¼ˆconcatå®Œé€šé“ä¼šå˜æˆ512ï¼‰å¦åˆ™ä¸‹é¢å°±ä¼šå˜æˆ512->512çš„ä¸‹é‡‡æ ·å·ç§¯ï¼Œæœ¬æ¥åº”è¯¥æ˜¯256->512ã€‚
    [-1, 1, Conv, [1024, 3, 2]], # 7-P5/32    15
    [-1, 3, C3, [1024]],                     #16
    [-1, 1, SPPF, [1024, 5]], # 9             17
  ]

# YOLOv5 v6.0 head
head: [
    [-1, 1, Conv, [512, 1, 1]],                     #18
    [-1, 1, nn.Upsample, [None, 2, "nearest"]],     #19
    [[-1, 12], 1, Concat, [1]], # cat backbone P4    20
    [-1, 3, C3, [512, False]], # 13                  21

    [-1, 1, Conv, [256, 1, 1]],                     #22
    [-1, 1, nn.Upsample, [None, 2, "nearest"]],     #23
    [[-1, 10], 1, Concat, [1]], # cat backbone P3    24
    [-1, 3, C3, [256, False]], # 17 (P3/8-small)     25

    [-1, 1, Conv, [256, 3, 2]],                     #26
    [[-1, 20], 1, Concat, [1]], # cat head P4        27
    [-1, 3, C3, [512, False]], # 20 (P4/16-medium)   28

    [-1, 1, Conv, [512, 3, 2]],                     #29
    [[-1, 16], 1, Concat, [1]], # cat head P5        30
    [-1, 3, C3, [1024, False]], # 23 (P5/32-large)   31

    [[23, 26, 29], 1, Detect, [nc, anchors]], # Detect(P3, P4, P5)
  ]
